…
vocab_save='aae_save/aae_vocab.pt', weight_decay=0)"]},"metadata":{"tags":[]},"execution_count":12}]},{"cell_type":"code","metadata":{"id":"I0iXgJx-XDL6","colab":{"base_uri":"https://localhost:8080/"},"executionInfo":{"status":"ok","timestamp":1606114925466,"user_tz":-540,"elapsed":1017,"user":{"displayName":"","photoUrl":"","userId":""}},"outputId":"ef7dc17b-556b-4f60-d8f2-29e676a8c61e"},"source":["import moses.aae\n","aae = moses.aae.AAE(vocabulary = vocab, config=config)\n","aae"],"execution_count":null,"outputs":[{"output_type":"execute_result","data":{"text/plain":["AAE(\n","  (embeddings): Embedding(30, 32, padding_idx=28)\n","  (encoder): Encoder(\n","    (embedding_layer): Embedding(30, 32, padding_idx=28)\n","    (lstm_layer): LSTM(32, 512, batch_first=True, bidirectional=True)\n","    (linear_layer): Linear(in_features=1024, out_features=128, bias=True)\n","  )\n","  (decoder): Decoder(\n","    (latent2hidden_layer): Linear(in_features=128, out_features=512, bias=True)\n","    (embedding_layer): Embedding(30, 32, padding_idx=28)\n","    (lstm_layer): LSTM(32, 512, num_layers=2, batch_first=True)\n","    (linear_layer): Linear(in_features=512, out_features=30, bias=True)\n","  )\n","  (discriminator): Discriminator(\n","    (layers_seq): Sequential(\n","      (linear_0): Linear(in_features=128, out_features=640, bias=True)\n","      (activation_0): ELU(alpha=1.0, inplace=True)\n","      (linear_1): Linear(in_features=640, out_features=256, bias=True)\n","      (activation_1): ELU(alpha=1.0, inplace=True)\n","      (linear_2): Linear(in_features=256, out_features=1, bias=True)\n","    )\n","  )\n",")"]},"metadata":{"tags":[]},"execution_count":13}]},{"cell_type":"code","metadata":{"id":"oEqXI245C7BL"},"source":["import torch\n","import torch.nn as nn\n","import torch.nn.functional as F\n","class AttrPredictor(nn.Module):\n","  \"\"\"\n","  Receives latent vector z, predicts LogP, SA, and QED.\n","  \"\"\"\n","  \n","  def __in
…
U(),\n","            nn.Linear(d_z, 1)) \n","        for k in ['logp', 'sa', 'qed']})\n","  \n","  def forward(self, z):\n","    return [self.predictors[k](z) for k in ['logp', 'sa', 'qed']]"],"execution_count":null,"outputs":[]},{"cell_type":"code","metadata":{"id":"jBANlsO8Dt4o","colab":{"base_uri":"https://localhost:8080/"},"outputId":"c5588f37-55b0-4842-f623-f68bf260897c"},"source":["ap = AttrPredictor(128)\n","ap"],"execution_count":null,"outputs":[{"output_type":"execute_result","data":{"text/plain":["AttrPredictor(\n","  (predictors): ModuleDict(\n","    (logp): Sequential(\n","      (0): Linear(in_features=128, out_features=128, bias=True)\n","      (1): ReLU()\n","      (2): Linear(in_features=128, out_features=1, bias=True)\n","    )\n","    (sa): Sequential(\n","      (0): Linear(in_features=128, out_features=128, bias=True)\n","      (1): ReLU()\n","      (2): Linear(in_features=128, out_features=1, bias=True)\n","    )\n","    (qed): Sequential(\n","      (0): Linear(in_features=128, out_features=128, bias=True)\n","      (1): ReLU()\n","      (2): Linear(in_features=128, out_features=1, bias=True)\n","    )\n","  )\n",")"]},"metadata":{"tags":[]},"execution_count":22}]},{"cell_type":"code","metadata":{"id":"qmx8XV-GjG0j"},"source":["saved_model = torch.load(\"/content/save_aae/aae_model.pt\")"],"execution_count":null,"outputs":[]},{"cell_type":"code","metadata":{"id":"4IsvipmIlI04","colab":{"base_uri":"https://localhost:8080/"},"executionInfo":{"s
…
